…
  82:         print("model %d done ----------------" % len(results))
  83:         sys.stdout.flush()
  84: 
  85:     except:
  86:         loss=1000
  87:         acc=0
  88:         print("failed to run model")
  89:         sys.stdout.flush()
  90: 
  91:         model=None
  92: 
  93:     return{'loss':loss,'status':STATUS_OK,'model':model}
  94: 
c

Summary of best model:
_________________________________________________________________
Layer (type)                 Output Shape              Param #   
=================================================================
conv1d_65 (Conv1D)           (None, 988, 250)          13250     
_________________________________________________________________
batch_normalization_101 (Bat (None, 988, 250)          1000      
_________________________________________________________________
activation_134 (Activation)  (None, 988, 250)          0         
_________________________________________________________________
max_pooling1d_34 (MaxPooling (None, 32, 250)           0         
_________________________________________________________________
flatten_34 (Flatten)         (None, 8000)              0         
_________________________________________________________________
dense_70 (Dense)             (None, 4)                 32004     
_________________________________________________________________
activation_135 (Activation)  (None, 4)                 0         
=================================================================
Total params: 46,254
Trainable params: 45,754
Non-trainable params: 500
_________________________________________________________________
╒════════════╤════════════════╤════════════╤═════════╤════════════╤══════════╤════════════╤═══════════╤════════╤═════════════╤═════════════╕
│       loss │   kernel_size1 │   n_conv_1 │   Dense │    Dropout │   n_conv │         lr │   filters │   time │   filters_1 │   filters_2 │
…
